assets/model/irrigation_model.tflite (tflite, 11976 bytes, 6 tensors)

arith.constant f4 [4, 32]
-0.4441928 -0.37352452 -0.6640955 -0.09917509 -0.3178663 -0.30584484 0.029410759 0.013575897
-0.07942837 0.19478384 -0.24297713 -0.38211697 0.21623519 -0.3485987 0.3125923 -0.51849467
-0.42010337 0.047636397 0.17216147 -0.011557985 0.33991113 -0.17084545 0.028258754 -0.07949436
-0.14269835 -0.24784477 -0.09217309 0.11530737 -0.5969574 -0.42534304 -0.0909446 -0.0495868
0.13017477 0.24848603 -0.20308594 -0.39795333 -0.23537223 -0.3976674 0.15120319 0.2527262
0.012490169 -0.39323676 0.024533626 -0.32039428 -0.2088738 0.19938089 -0.38950184 -0.59900534
0.35151815 -0.1415534 0.25839323 -0.028590737 -0.22336332 -0.21310732 0.32540613 0.2766108
-0.36641946 -0.22743137 -0.47817448 -0.44074062 -0.6549384 -0.29387227 -0.41668144 -0.20985153
0.24034548 0.054302916 -0.712515 -0.1957998 0.06410352 -0.46280283 -0.43580863 -0.13366975
0.21438992 0.22649136 -0.42561394 -0.12894833 0.15621333 0.17591631 -0.31065384 -0.28967243
0.038917694 -0.3842307 -0.31664887 0.24634491 0.08767129 -0.20474236 0.16279088 0.33514345
0.059473924 0.13443057 -0.48526508 -0.46126464 -0.7057531 0.07566017 0.34603378 0.004640819
0.3058284 -0.27802402 0.35401303 0.100787796 0.4056746 0.48109818 0.21671207 0.31476277
-0.2579663 -0.1540526 0.5073258 0.08666254 -0.2863394 -0.22197187 -0.3053309 -0.021487147
-0.26137614 0.23383352 -0.16053247 0.35302556 -0.0007836047 0.17567334 -0.13810976 0.04611138
0.51513743 0.44749737 0.0035055832 0.1907168 0.6222494 0.082440004 -0.3507059 -0.042621683
00000000: 3d6d e3be 9b3e bfbe 2a02 2abf 4f1c cbbd
00000010: 5fbf a2be b297 9cbe d5ee f03c 706d 5e3c
00000020: 57ab a2bd 6a75 473e ffce 78be d6a4 c3be
00000030: c26c 5d3e 877b b2be 190c a03e 11bc 04bf
00000040: ca17 d7be 621e 433d 194b 303e b45d 3dbc
00000050: d508 ae3e 1cf2 2ebe e77e e73c f0cd a2bd
00000060: 841f 12be 05cb 7dbe 3fc5 bcbd 4526 ec3d
00000070: 33d2 18bf 90c6 d9be 2a41 babd 871b 4bbd
00000080: 894c 053e 1f73 7e3e c3f5 4fbe 8ac0 cbbe
00000090: 6b05 71be 109b cbbe 02d5 1a3e 5465 813e
000000a0: 91a3 4c3c 5456 c9be befa c83c b80a a4be
000000b0: 03e3 55be 812a 4c3e c96c c7be 6a58 19bf
000000c0: 30fa b33e 60f3 10be 1e4c 843e 1f37 eabc
000000d0: 5bb9 64be ce38 5abe a29b a63e ee9f 8d3e
000000e0: 559b bbbe c5e3 68be 49d3 f4be c1a8 e1be
000000f0: 0baa 27bf 6d76 96be 4557 d5be 52e3 56be
00000100: 201d 763e bc6c 5e3d 6267 36bf be7f 48be
00000110: b548 833d 7ef4 ecbe 4f22 dfbe b9e0 08be
00000120: 0889 5b3e 5aed 673e 12ea d9be 080b 04be
00000130: 63f6 1f3e 6823 343e 050e 9fbe f24f 94be
00000140: 2968 1f3d e3b9 c4be cd1f a2be d741 7c3e
00000150: 018d b33d fba7 51be a7b2 263e ec97 ab3e
00000160: ee9a 733d 2ba8 093e aa74 f8be e12a ecbe
00000170: 3cac 34bf b8f3 9a3d 572b b13e 0312 983b
00000180: 8a95 9c3e 2a59 8ebe 3241 b53e d569 ce3d
00000190: 95b4 cf3e 8052 f63e c5e9 5d3e 9628 a13e
000001a0: 2914 84be f7bf 1dbe 1be0 013f 217c b13d
000001b0: 149b 92be 984c 63be 5554 9cbe d005 b0bc
000001c0: 18d3 85be 0e72 6f3e a062 24be c4bf b43e
000001d0: d26a 4dba b6e3 333e a56c 0dbe 49df 3c3d
000001e0: 0ce0 033f 601e e53e edbd 653b 444b 433e
000001f0: bd4b 1f3f 4ed6 a83d b98f b3be 1394 2ebd

arith.constant1 f4 [32, 64]
0.2369709 -0.13220973 0.056395855 0.25116292 0.22436535 0.23508985 0.009111449 0.06003436
0.13471004 0.18009427 0.308656 0.15010147 0.31324872 0.24918048 0.08296697 0.07505189
0.02140851 0.2827665 0.1795945 0.23528852 0.07296142 0.15152928 0.23436184 0.21377905
0.2727939 0.068486944 -0.1604028 0.1311464 0.28903967 -0.13057613 0.06622322 -0.029058052
-0.03215804 0.15693177 -0.0057419576 0.2882607 0.30030763 0.16677016 0.31766874 0.24523915
0.09848808 -0.004165503 0.18870772 0.3091007 0.29991472 0.33252248 0.06055212 -0.07870385
-0.08833217 -0.133138 0.10019753 0.054339286 -0.082257606 -0.086745575 0.091138236 -0.020188145
-0.052904498 0.16276766 -0.07139089 -0.09982345 -0.1509705 0.092312716 0.29506677 -0.10970774
-0.08337321 0.1431003 -0.20144348 -0.18928061 -0.008179596 0.17791487 0.097223476 -0.22982755
-0.0013821102 0.18856932 -0.05342417 -0.15934983 0.032768037 0.008580462 -0.14803748 -0.049667798
-0.06527538 0.17509574 0.17913865 0.07183988 0.083716094 -0.23411722 -0.15490499 0.1558982
0.19529927 0.08906564 -0.15170966 0.14665736 0.090330034 -0.12027619 -0.06444544 -0.2709476
0.06795352 -0.13523756 -0.03884921 -0.022165038 -0.113975264 0.1301268 0.056667216 -0.23615019
0.093546174 0.14407402 -0.03480885 -0.15976568 -0.13155045 0.15107521 0.12803312 -0.060519222
0.03803604 -0.039873656 0.18559803 0.05369228 0.15356645 -0.04682713 -0.049722143 0.16466
-0.07887182 -0.08538716 -0.023562 0.050933134 0.06966405 -0.12804903 -0.2855006 0.21685113
0.12379086 0.3016745 0.27756914 0.0667738 0.12225931 0.039018236 0.27519765 0.21488047
0.16392606 0.3061961 0.20055385 0.09763996 0.31750485 0.082822844 0.066765204 -0.050020706
0.013373531 0.31111616 0.084660545 -0.06811279 0.29487702 0.28643623 0.42671853 0.29548857
0.42200822 0.045760978 0.2328813 0.26765168 0.093628414 0.33689004 0.66167915 0.14588594
0.052964624 0.22615683 0.013933295 0.14283863 0.16498086 0.10118132 0.0019554321 -0.021273125
0.21121804 0.36742657 -0.04821824 0.55368894 0.22512451 0.12535214 0.21494552 0.0858979
0.30056053 -0.04806379 -0.034812655 0.118138 0.1922544 0.09484803 -0.047748856 0.022605594
0.48050484 -0.04247097 0.335638 0.25259683 -0.05916802 0.4676019 0.19151132 0.018595278
0.16208982 0.21587831 0.14643502 0.056452155 0.21276273 0.07441258 0.19721879 0.12963228
-0.01820237 -0.043398798 0.2447497 0.2930026 0.11457577 0.32981968 -0.018114995 0.04935121
-0.07269597 0.10766141 0.018626966 0.042913157 0.3312104 0.20807855 -0.025768867 0.19042458
0.056422304 0.035816938 0.26392943 0.15486765 -0.04791494 0.035170443 0.3999995 -0.072405234
0.27672932 0.19781622 -0.043478046 0.0020043794 0.2113393 0.14969712 0.11727072 0.35623676
0.15242139 0.1117887 0.28791133 -0.036538035 0.3313369 0.093409374 -0.00573718 0.112720475
0.2945506 0.30258325 0.12042268 -0.102689326 -0.033443425 -0.09461992 0.13395053 0.044230286
0.16306524 0.057188455 0.13313352 0.11865535 0.34970763 0.07175768 -0.051484413 0.044996962
00000000: 80a8 723e fd61 07be 57ff 663d 6d98 803e
00000010: 08c0 653e 65bb 703e 3048 153c 97e6 753d
00000020: 6ef1 093e a26a 383e 2908 9e3e 33b4 193e
00000030: 2362 a03e 2b29 7f3e 96ea a93d ceb4 993d
00000040: e660 af3c c5c6 903e 9fe7 373e 79ef 703e
00000050: cc6c 953d 7e2a 1b3e 8dfc 6f3e e5e8 5a3e
00000060: a4ab 8b3e e242 8c3d a240 24be 3e4b 063e
00000070: 02fd 933e c0b5 05be 0aa0 873d 270b eebc
00000080: 26b8 03bd b9b2 203e 0827 bcbb e896 933e
00000090: ecc1 993e ccc5 2a3e 7aa5 a23e f91f 7b3e
000000a0: 1eb4 c93d c67e 88bb 993c 413e 7242 9e3e
000000b0: 6c8e 993e 6340 aa3e 8005 783d 7c2f a1bd
000000c0: 7fe7 b4bd 5455 08be 5d34 cd3d df92 5e3d
000000d0: ad76 a8bd aaa7 b1bd afa6 ba3d 9c61 a5bc
000000e0: 63b2 58bd 91ac 263e 6335 92bd 3d70 ccbd
000000f0: 0398 1abe 730e bd3d fe12 973e 74ae e0bd
00000100: 93bf aabd e388 123e 3347 4ebe c7d2 41be
00000110: b603 06bc 512f 363e 1a1d c73d ea57 6bbe
00000120: ec27 b5ba 5118 413e 4dd3 5abd 9a2c 23be
00000130: c737 063d 1195 0c3c 2397 17be 7670 4bbd
00000140: 19af 85bd 4c4c 333e 1f70 373e c920 933d
00000150: 5873 ab3d 6dbc 6fbe 6a9f 1ebe c7a3 1f3e
00000160: 88fc 473e 0c68 b63d c759 1bbe 592d 163e
00000170: f4fe b83d 5d53 f6bd f9fb 83bd a5b9 8abe
00000180: 372b 8b3d b77b 0abe 5920 1fbd 7493 b5bc
00000190: dd6b e9bd f63f 053e e21b 683d 5bd1 71be
000001a0: 2395 bf3d 2488 133e ba93 0ebd 9d99 23be
000001b0: 29b5 06be 76b3 1a3e 1d1b 033e 01e3 77bd
000001c0: aecb 1b3d 8f52 23bd 690d 3e3e 70ec 5b3d
000001d0: 8640 1d3e cecd 3fbd 72a9 4bbd a29c 283e
000001e0: 8c87 a1bd 77df aebd 1805 c1bc 439f 503d
000001f0: 07ac 8e3d 491f 03be 222d 92be 390e 5e3e
00000200: 1086 fd3d 1475 9a3e 8b1d 8e3e b4c0 883d
00000210: 1763 fa3d 96d1 1f3d b5e6 8c3e a009 5c3e
00000220: 3cdc 273e bcc5 9c3e fd5d 4d3e 76f7 c73d
00000230: ff8f a23e 069f a93d 32bc 883d 83e2 4cbd
00000240: a81c 5b3c 9e4a 9f3e 8262 ad3d b87e 8bbd
00000250: 1ffa 963e c5a7 923e da7a da3e 474a 973e
00000260: 7611 d83e dd6f 3b3d 6f78 6e3e a409 893e
00000270: 41c0 bf3d da7c ac3e ce63 293f 2063 153e
00000280: 6ff1 583d a895 673e 7a48 643c 4a44 123e
00000290: bef0 283e 2738 cf3d b526 003b fa44 aebc
000002a0: 8b49 583e 561f bc3e 7d80 45bd 8fbe 0d3f
000002b0: 0a87 663e 505c 003e ae1a 5c3e 3deb af3d
000002c0: 12e3 993e 89de 44bd b797 0ebd 56f2 f13d
000002d0: 56de 443e af3f c23d 4e94 43bd 5e2f b93c
000002e0: bb04 f63e 0af6 2dbd bed8 ab3e 5f54 813e
000002f0: 2a5a 72bd 8469 ef3e 8b1b 443e 2055 983c
00000300: e0fa 253e 340f 5d3e 10f3 153e 603a 673d
00000310: 79de 593e 9f65 983d b9f3 493e 53be 043e
00000320: 231d 95bc f0c2 31bd aa9f 7a3e 7004 963e
00000330: b4a6 ea3d 20de a83e e665 94bc 7f24 4a3d
00000340: a0e1 94bd 967d dc3d 9497 983c b5c5 2f3d
00000350: 6994 a93e 8b12 553e 3b19 d3bc a9fe 423e
00000360: 131b 673d c8b4 123d c221 873e a095 1e3e
00000370: 7542 44bd e20e 103d bccc cc3e 3249 94bd
00000380: 77af 8d3e 5690 4a3e 0916 32bd e85b 033b
00000390: 5469 583e 344a 193e a22b f03d aa64 b63e
000003a0: 5a14 1c3e 79f1 e43d 1d69 933e e8a8 15bd
000003b0: fda4 a93e 6a4d bf3d f4fe bbbb fed9 e63d
000003c0: 56cf 963e 31ec 9a3e 2ba0 f63d c84e d2bd
000003d0: f9fb 08bd 17c8 c1bd 542a 093e d12a 353d
000003e0: 93fa 263e 713e 6a3d 2754 083e 9301 f33d
000003f0: e10c b33e b1f5 923d 52e1 52bd bc4e 383d

arith.constant2 f4 [4]
-0.067304544 -0.06819805 -0.07221246 0.06929141
00000000: f7d6 89bd 6bab 8bbd 20e4 93bd a8e8 8d3d

sequential_1/dense_1_2/BiasAdd/ReadVariableOp f4 [32]
0.09589697 -0.039841603 0.19809215 0.12675302 0.106694385 0.0841307 0.11483371 0.10756267
-0.03426284 -0.040964648 0.08617583 0.09928629 -0.029824737 -0.034125663 -0.027990071 0.1602653
-0.03678431 0.107265346 -0.04080909 0.14315395 -0.034294326 0.10256129 -0.027277574 -0.0417196
0.10585109 0.14667717 0.105674565 0.09318775 0.15272492 0.13333696 -0.03713755 -0.003943196
00000000: a165 c43d f330 23bd abd8 4a3e 8bcb 013e
00000010: 9682 da3d b74c ac3d f02d eb3d d149 dc3d
00000020: 3157 0cbd 8cca 27bd f47c b03d 9c56 cb3d
00000030: 0253 f4bc 5ac7 0bbd 6f4b e5bc 961c 243e
00000040: 25ab 16bd efad db3d 6f27 27bd f396 123e
00000050: 3578 0cbd a70b d23d 3875 dfbc 2ce2 2abd
00000060: 75c8 d83d 8a32 163e e86b d83d 38d9 be3d
00000070: ec63 1c3e 7c89 083e 8b1d 18bd ed35 81bb

sequential_1/dense_1/BiasAdd/ReadVariableOp f4 [64]
0.20855995 -0.040721662 0.19096872 0.10666631 0.1651587 0.14320132 -0.04023156 0.1550893
0.1304114 -0.032730404 0.14179975 0.1645503 0.19285223 0.15427859 0.16744037 -0.029634638
0.11261518 0.20362449 0.16556476 0.007500189 0.26254028 -0.039193865 0.15601586 0.12748209
0.19993775 0.13884391 0.116004616 0.0012448446 0.12896001 0.17024696 0.37252784 0.17323664
-0.034298677 0.10535791 0.014236433 0.19448498 0.17811388 -0.052303787 0.15623377 0.12219095
0.18170889 0.079248 -0.04321702 0.34125125 0.1940788 0.12913679 0.19896924 0.16995542
0.16650577 0.1760765 -0.027589168 0.108946696 0.16024746 0.17338261 0.1752473 0.1956201
0.1300068 -0.043308377 0.17312866 0.13960917 0.18217237 0.25390145 0.20033492 -0.040373556
00000000: bd90 553e c2cb 26bd 4e8d 433e de73 da3d
00000010: 5d1f 293e 5ea3 123e d9c9 24bd bbcf 1e3e
00000020: 918a 053e 5110 06bd f433 113e e07f 283e
00000030: 0e7b 453e 35fb 1d3e 7d75 2b3e 57c4 f2bc
00000040: caa2 e63d f082 503e cf89 293e 25c4 f53b
00000050: ae6b 863e bf89 20bd 9fc2 1f3e aa8a 023e
00000060: 7bbc 4c3e 192d 0e3e d493 ed3d 0e2a a33a
00000070: 180e 043e 3855 2e3e f8bb be3e f264 313e
00000080: c57c 0cbd e3c5 d73d ee3f 693c 1227 473e
00000090: 7c63 363e 7f3c 56bd bffb 1f3e 403f fa3d
000000a0: e511 3a3e c74c a23d 5404 31bd 7cb8 ae3e
000000b0: 98bc 463e 6f3c 043e 98be 4b3e cb08 2e3e
000000c0: 7d80 2a3e 664d 343e ae02 e2bc 721f df3d
000000d0: e917 243e 368b 313e 0774 333e a350 483e
000000e0: 8120 053e 2064 31bd a448 313e b5f5 0e3e
000000f0: 658b 3a3e 5fff 813e 9924 4d3e be5e 25bd

sequential_1/dense_1/MatMul f4 [64, 3]
-0.25737774 -0.30007493 0.17908968 0.16611229 -0.11219672 0.102659345 0.33110207 -0.33558148
-0.38195232 -0.17070298 -0.3053046 0.26285133 -0.17420687 0.32849386 -0.018064631 0.27860624
-0.24581482 0.060085073 0.23670672 0.01812536 0.047889672 0.28184313 0.19243632 -0.21742594
-0.31114247 -0.2821974 0.109423935 0.09653134 -0.081231974 0.118179895 -0.20632394 -0.3501924
-0.09071643 -0.19868505 0.17467177 0.368364 -0.23552038 0.34549865 -0.3706272 0.2534308
0.20174801 -0.15110205 -0.37405306 0.1762128 -0.08505471 0.12743735 -0.01905261 -0.11813493
0.22402826 -0.31843898 0.2398428 -0.033350363 0.373106 0.21345514 0.09746492 -0.07994601
0.16653153 0.29174688 0.16958183 -0.21705844 0.28223604 0.09239447 -0.23536229 -0.10918183
0.12617324 0.20111105 -0.0019979042 -0.17751263 0.032641083 0.13714953 0.2380524 0.14825198
-0.11475961 -0.15430014 -0.20213178 0.005423575 -0.37554446 -0.2599928 -0.2968428 -0.36253488
0.05573001 0.253531 0.073887415 -0.23275237 0.31764942 0.05356723 -0.34195635 -0.04455106
0.084139965 -0.3627697 0.14502965 -0.08543117 -0.016860263 0.11766703 0.23957218 -0.27359116
0.11034249 0.036786802 -0.046518426 -0.1631748 -0.27268472 0.3694163 -0.09170607 0.2866666
-0.066549614 -0.34904003 -0.167273 0.134081 -0.33013052 0.13039728 -0.26262635 -0.20284136
-0.25282347 -0.010226468 0.19121808 0.3982887 0.2991866 0.18651003 0.2580157 0.0074271713
-0.3146203 0.292471 0.2527492 -0.24185027 -0.042650968 -0.1810282 0.005420309 -0.17676586
-0.093137935 -0.27357817 -0.260878 0.30431545 -0.048011348 0.017086368 0.12545513 -0.19227612
-0.33173236 -0.23567909 0.34492388 0.021197109 0.11491344 -0.28190038 0.1990955 0.18810114
-0.08127129 -0.10429616 0.37949103 0.33143407 0.06032915 -0.37369788 -0.11817542 0.12480476
-0.029798094 0.35614786 -0.24965347 0.31136882 -0.19450603 -0.073844075 0.19678351 0.22968625
0.13920422 -0.2673333 0.24812901 -0.25094453 0.076903254 0.16730957 -0.20256548 0.15431155
-0.23576783 -0.07787665 0.10183437 0.035385884 0.18469755 -0.2500572 0.2777649 0.16644064
-0.09193215 -0.35550067 0.30676314 -0.11422359 0.25320795 -0.33145815 0.07174577 -0.16330951
0.31679806 0.00028263172 0.30649 0.17284289 0.016157974 -0.124080606 0.07606113 -0.19903396
00000000: 04c7 83be 6ca3 99be 4963 373e 5719 2a3e
00000010: 65c7 e5bd 103f d23d 3686 a93e 56d1 abbe
00000020: 418f c3be c3cc 2ebe e250 9cbe 7394 863e
00000030: 4963 32be 5930 a83e 47fc 93bc 7aa5 8e3e
00000040: e1b6 7bbe c41b 763d 3f63 723e a37b 943c
00000050: f627 443d be4d 903e 070e 453e e8a4 5ebe
00000060: 114e 9fbe 2d7c 90be a819 e03d 39b2 c53d
00000070: f35c a6bd 4d08 f23d 9546 53be 6b4c b3be
00000080: 89c9 b9bd 1874 4bbe 28dd 323e 359a bc3e
00000090: 412c 71be 33e5 b03e d9c2 bdbe afc1 813e
000000a0: 0897 4e3e 7fba 1abe e283 bfbe 2171 343e
000000b0: 2a31 aebd f07e 023e 3814 9cbc baf0 f1bd
000000c0: aa67 653e 6f0a a3be 5a99 753e 649a 08bd
000000d0: c007 bf3e fc93 5a3e b09b c73d bcba a3bd
000000e0: 3e87 2a3e d95f 953e dca6 2d3e 9144 5ebe
000000f0: 3e81 903e 5039 bd3d d002 71be b99a dfbd
00000100: 8f33 013e 0ef0 4d3e 45ef 02bb dfc5 35be
00000110: a8b2 053d ed70 0c3e 02c4 733e 5ecf 173e
00000120: 1607 ebbd db00 1ebe a2fb 4ebe 3fb8 b13b
00000130: 5d47 c0be c71d 85be c8fb 97be 2c9e b9be
00000140: 2745 643d d1ce 813e 4952 973d a356 6ebe
00000150: f2a2 a23e 5069 5b3d e714 afbe 2c7b 36bd
00000160: 9351 ac3d f3bc b9be a782 143e 8af6 aebd
00000170: 891e 8abc 69fb f03d 6952 753e 2414 8cbe
00000180: 3efb e13d c2ad 163d 1b8a 3ebd 4b17 27be
00000190: 559d 8bbe 2224 bd3e 64d0 bbbd f7c5 923e
000001a0: 2a4b 88bd 60b5 b2be 9d49 2bbe 884c 093e
000001b0: de06 a9be dd86 053e f676 86be a5b5 4fbe
000001c0: 1472 81be ea8c 27bc acce 433e 7fec cb3e
000001d0: fc2e 993e 7cfc 3e3e a21a 843e a15f f33b
000001e0: e915 a1be c2be 953e 5868 813e 99a7 77be
000001f0: c8b2 2ebd 755f 39be d99c b13b 1c02 35be
00000200: 1abf bebd 7012 8cbe cd91 85be 3ccf 9b3e
00000210: 8ca7 44bd b6f8 8b3c 4f77 003e 08e4 44be
00000220: d3d8 a9be dc55 71be dd99 b03e 8fa5 ad3c
00000230: bd57 eb3d 3f55 90be b1df 4b3e 969d 403e
00000240: 9071 a6bd 3a99 d5bd a64c c23e bab1 a93e
00000250: b31b 773d 5455 bfbe f405 f2bd a399 ff3d
00000260: 221b f4bc 0359 b63e 29a5 7fbe bc6b 9f3e
00000270: 972c 47be 903b 97bd 9e81 493e df32 6b3e
00000280: 8d8b 0e3e e9df 88be 8815 7e3e cd7b 80be
00000290: 747f 9d3d 3353 2b3e 536d 4fbe d903 1e3e
000002a0: 1f6d 71be cb7d 9fbd 8a8e d03d caf0 103d
000002b0: 5b21 3d3e 7f07 80be 3337 8e3e 6a6f 2a3e
000002c0: ec46 bcbd 2f04 b6be 0f10 9d3e 0fee e9bd
000002d0: 79a4 813e e2b4 a9be 72ef 923d 9c3a 27be
000002e0: 5b33 a23e 302e 9439 42ec 9c3e bafd 303e
000002f0: ba5d 843c f91d febd f0c5 9b3d 8fcf 4bbe
